models/lstm_model.pth (torch, 21753 bytes, 6 tensors)

lstm.weight_ih_l0 f4 [128, 2]
000000 f8 29 d3 bd dd 2a 39 be 98 f3 3b 3d df be 1e bf
       -0.10310739 -0.18082757 0.045886606 -0.62009996
000010 1d 15 a3 bd 57 03 af be 20 8d 0b 3e 04 9f a8 bf
       -0.079630114 -0.34182236 0.13628054 -1.3173528
000020 92 f1 cb bd c7 77 25 bf 8d 9a 8f 3e 7b f0 ab bd
       -0.09958185 -0.6463589 0.280476 -0.083954774
000030 e3 99 5d 3e b9 36 35 bf 3d 82 fb 3d 58 d9 fd be
       0.21640734 -0.70786625 0.122807 -0.49579883
000040 8f e2 2d 3e a3 0e 0b bf 31 42 fe 3d 93 85 44 bf
       0.16980956 -0.5431921 0.12414969 -0.7676632
000050 ef a6 6e 3e 83 16 59 bf 51 90 2f 3e 8c 39 2a 3d
       0.23305868 -0.84799975 0.17144896 0.041558787
000060 9b 99 22 3e 9f 10 e9 be 0b 8c 9a be f8 aa f8 be
       0.15878908 -0.45520493 -0.3018497 -0.4856794
000070 15 e0 72 3e 59 a6 4f bf 4a 1c c5 3e 91 51 be bf
       0.23718293 -0.811132 0.38498145 -1.4868642
000080 9b 85 a0 3e db b7 62 bf dc 70 7a be f8 9e 6e bd
       0.31351933 -0.8856179 -0.24457115 -0.058257073
000090 c9 8c 2b 3f 98 cb 8b bf d5 02 b7 3d e5 3a 2f bf
       0.67011696 -1.0921507 0.08936087 -0.6844924
0000a0 cc 6e c0 3d da a2 e8 be cc 18 1c bf 18 d7 38 3e
       0.09396133 -0.45436746 -0.6097534 0.18050802
0000b0 37 1e ff be 3c b9 b4 be fc 5e c3 3e 94 10 94 bf
       -0.4982774 -0.35297573 0.38158405 -1.1567559
0000c0 86 be 4c bd 70 dc aa be 66 61 68 3e c3 04 7b bd
       -0.049986385 -0.33371305 0.22693405 -0.061283838
0000d0 5f 1e 9c be 69 1a 65 be 82 2c 1e be 05 b2 6c be
       -0.3049192 -0.22373356 -0.15446666 -0.23114784
0000e0 47 67 01 be 30 42 30 3e 27 c0 fc be f7 45 96 3e
       -0.12637053 0.17212749 -0.4936535 0.29350254
0000f0 30 bd cb bd ef 31 00 bf 24 dd 9d bd e8 ff 41 3d
       -0.09948194 -0.5007619 -0.07708195 0.04736319
000100 6a 7b f9 be 8a 9b f6 be 9a 5c f4 3e b2 c0 2f bf
       -0.4872697 -0.48165542 0.477269 -0.68653405
000110 be 39 7e 3e d2 ea 8c 3e 47 a3 03 3e 08 f3 3a bf
       0.24826714 0.27522904 0.12855254 -0.73027086
000120 0d e0 9d 3d ec 20 6e bf 2c 3f 3f bd 34 5b d2 be
       0.0770875 -0.93018985 -0.046691105 -0.41085207
000130 f6 da 1d 3f 6d 8a 42 bf 18 00 e6 3d 80 0b 6a bc
       0.6166223 -0.7599247 0.11230487 -0.014284968
000140 4d 9d 9e 3d e8 72 b5 bd 2b 62 3d 3d cb b3 f0 be
       0.077448465 -0.08859807 0.0462362 -0.4701217
000150 e8 5f 3a bd 48 c5 5b bf 7e 69 12 be 1e 55 3b 3f
       -0.04550162 -0.858479 -0.14298055 0.73176754
000160 cf d6 ce 3d 4f 57 3b bf 0e d0 98 bd a3 1d 3c bf
       0.10099565 -0.731801 -0.07461558 -0.7348272
000170 df c0 05 3f 18 63 77 bf 0f ec 94 3c 71 c7 60 bf
       0.5224742 -0.9663558 0.018178968 -0.87804323
000180 5d ad 1e 3e 07 65 88 bf 00 95 43 be 6f cc ae 3e
       0.1549582 -1.0655831 -0.19099808 0.34140345
000190 f0 b2 70 3c 52 f2 8b bf b9 43 79 3e 94 e4 d5 be
       0.0146910995 -1.0933325 0.2434224 -0.41775954
0001a0 85 d6 79 be 43 91 1c bf 9f e3 09 bf 79 d9 76 be
       -0.24398239 -0.6115915 -0.5386295 -0.24106397
0001b0 cd 0f c7 bd 1c 1c 89 bd 58 45 c4 bd 18 b4 2c bf
       -0.09719811 -0.066948146 -0.09583539 -0.674623
0001c0 2c 07 da 3e 95 de e4 3c 93 20 0a 3f eb 62 a8 3e
       0.42583597 0.027938167 0.53955954 0.32887968
0001d0 78 19 e2 3d d4 c5 cb bd 23 ad b5 bd cf 65 69 3c
       0.11040014 -0.09949842 -0.08870914 0.0142454645
0001e0 e2 32 fe 3e 13 43 7d be 35 75 2c bf 46 0f 0d 3e
       0.49648196 -0.24732618 -0.67366344 0.13775358
0001f0 b9 e6 67 3d 76 5c ab be f9 cc a3 3d 5c b4 0a 3f
       0.05661652 -0.3346898 0.0799808 0.54181457
000200 d7 42 8f 3e b6 87 d3 be 1e 0e 13 be b0 c6 e1 3e
       0.27980682 -0.41314477 -0.14360854 0.440969
000210 e3 90 c0 bd d9 04 6c 3e f2 3c cc 3d e1 05 77 3d
       -0.09402635 0.23048724 0.09972562 0.06030834
000220 d4 a2 19 3e db 68 2f bf fe e7 09 3f ed ca f1 be
       0.1500352 -0.6851937 0.53869617 -0.47225133
000230 bc 4a a2 bd 2c a1 c0 3f d8 72 d5 be 1d 5c b7 3e
       -0.07924411 1.5049186 -0.4168918 0.35812464
000240 8d c2 f7 be 8e 4f 27 3e bd 75 ae be a9 7c 41 3e
       -0.48390618 0.16338941 -0.34074202 0.1889521
000250 a8 80 25 3f 5d 04 84 be f9 fb df 3e 4b 10 91 be
       0.6464944 -0.2578458 0.43746927 -0.28332743
000260 94 8d 04 3e dd 48 53 bf aa 6f 8c be c2 b6 ad 3e
       0.12944633 -0.82533056 -0.27428943 0.33928496
000270 cb 0f 01 be 18 9d b7 3f 63 48 a8 be 66 8b 92 3e
       -0.12603681 1.4344816 -0.32867727 0.28621978
000280 ea 0c 49 be 1c 94 8b 3e d9 14 12 be 1b 04 7e 3e
       -0.19633833 0.27261436 -0.14265765 0.24806254
000290 9b 88 cb 3e 0b e8 a3 be 5f f9 f2 3d 32 a4 d2 be
       0.3975266 -0.32012972 0.1186397 -0.41140896
0002a0 3c e2 05 bf 16 8a d1 3e 73 b9 bb be 76 98 df 3e
       -0.5229833 0.40925664 -0.36664924 0.43671006
0002b0 06 e3 db 3c 90 b2 e7 bc 36 22 95 be 17 39 a9 3e
       0.026841652 -0.028283387 -0.29127663 0.3305137
0002c0 7d 61 93 3e f1 b4 8e be a0 07 3e be fe d8 7b 3f
       0.28785315 -0.27872422 -0.18557596 0.9837798
0002d0 d9 57 9f 3e 49 9a 16 bd c5 7e a5 3c e6 f1 95 be
       0.3112171 -0.03676823 0.02020205 -0.29286116
0002e0 77 a6 79 3e d3 75 32 bf b5 9d b4 3e 69 00 87 be
       0.24379908 -0.69711035 0.3527657 -0.263675
0002f0 de 15 ad be 8a db 5f 3e 5e 6f e7 3e 8f 05 91 be
       -0.33805746 0.21861091 0.45202154 -0.28324553
000300 8e ac 39 bd 58 8f ad be 59 c6 cd bd bf 8d e5 be
       -0.045330577 -0.33898425 -0.100475974 -0.44834706
000310 e4 d5 84 3d 1d e4 b8 be 1e 3e 27 3e 95 ba 93 bf
       0.06486109 -0.36111537 0.1633229 -1.1541315
000320 65 4d 94 bc 52 49 bd be cf 4e 85 3d c8 f8 ad be
       -0.01810331 -0.3697 0.06509172 -0.33978868
000330 cd 45 78 3e 93 62 0d bf ef 52 9f 3e 51 82 0b be
       0.24245377 -0.5522854 0.3111796 -0.1362393
000340 6c 90 d8 3e e6 0f 16 be 8e 06 5a 3e 0f 2a 31 bf
       0.42297685 -0.14654502 0.21291563 -0.692048
000350 89 0c ed 3e 1a c1 38 bf f9 01 85 3e 10 ab 22 bc
       0.46298626 -0.7216965 0.25978068 -0.00992848
000360 3d 83 04 3e ba 8c 9a be f1 82 0d be 22 53 21 bf
       0.12940688 -0.3018549 -0.13819481 -0.63017476
000370 ed 3c a5 3e ee 39 4a bf 76 2b c6 3e 38 26 98 bf
       0.32273045 -0.78994644 0.38705033 -1.1886663
000380 05 93 f2 3e 18 07 7c bf ea 01 17 be ed 70 23 be
       0.47377792 -0.98448324 -0.14746824 -0.15961047
000390 91 27 37 3f 1b 73 81 bf 97 21 9f 3e 83 d0 01 bf
       0.7154475 -1.0113252 0.31080315 -0.5070879
0003a0 6c b2 85 3e 64 dc 7a be 9d ee 18 bf c9 d1 d7 3e
       0.26112688 -0.24498135 -0.59739095 0.4215224
0003b0 24 64 94 be ee b5 00 bf cb 69 ad 3e c5 9c 95 bf
       -0.2898265 -0.502776 0.33869776 -1.1688467
0003c0 86 f6 e3 3e 00 02 ca be 96 25 84 3e fe a7 68 3e
       0.4452402 -0.3945465 0.25809926 0.22720334
0003d0 1f 3e 47 be 6b 7b 9b be 88 a4 be bd bd c5 f1 be
       -0.19457291 -0.30367598 -0.093087256 -0.47221175
0003e0 ee d3 d1 3d 5a 5e 1e be 42 2d ee be 5c 36 3b 3d
       0.102455005 -0.1546568 -0.46518904 0.045706138
0003f0 2c 6b 17 bc 42 9a 2b bf 46 8f d3 3e 24 a7 83 bd
       -0.00924186 -0.67032254 0.41320246 -0.06428364

lstm.weight_hh_l0 f4 [128, 32]
000000 49 bc f8 bd b6 16 47 be 0a bf c7 3e 02 77 54 3d
       -0.121452875 -0.19442257 0.3901294 0.051871307
000010 fc fb 8f be 51 86 58 bf 6f fb 24 be 58 97 71 3e
       -0.28121936 -0.8457995 -0.1611154 0.2359289
000020 68 93 ec 3e c2 38 0d 3f f1 99 06 bf 04 4c 33 bf
       0.46206212 0.5516473 -0.52578646 -0.70037866
000030 da 8c 5a bd c6 e6 a5 bd de 5c 32 3c 81 7e 1e 3e
       -0.053356983 -0.08100657 0.010886399 0.15477945
000040 3f b6 88 3b c5 58 d5 3e 66 57 1a be 06 2f d7 be
       0.004172116 0.41669288 -0.15072402 -0.42028064
000050 d3 83 13 3f 19 09 dc 3e 13 74 c9 3d 1a 0d 2f 3e
       0.5762302 0.4297569 0.098365925 0.17094842
000060 71 8f 47 be 55 0b a1 3d f8 80 e6 be 05 41 a6 be
       -0.19488312 0.078634895 -0.4502027 -0.3247148
000070 27 b7 6b bd 54 ce fe be 1d ac df 3e 6c 09 ef be
       -0.057547715 -0.4976679 0.43686 -0.46686876
000080 3d 27 22 3e 99 82 dc 3d 34 d3 54 3e ef 40 78 be
       0.1583528 0.10767097 0.20783693 -0.2424352
000090 76 8c 1e 3e 44 11 41 bd 9d 31 84 be 73 e8 37 3e
       0.15483269 -0.047135606 -0.25819102 0.17959766
0000a0 a3 37 58 3e a9 85 20 3e 93 a7 48 3d 8a 52 b0 bd
       0.21114974 0.15675987 0.048987936 -0.08609493
0000b0 86 01 81 3e 16 70 36 bc 8e eb 18 be 1e 44 2d be
       0.25196475 -0.011135122 -0.14933607 -0.16920516
0000c0 ee 85 30 be 87 4a ca 3d 84 55 dd 3e 46 68 4c bc
       -0.1723859 0.09877496 0.43229306 -0.012476033
0000d0 75 60 ba bd f7 da 22 be 36 26 5a bd 83 ed 43 be
       -0.09100429 -0.15903841 -0.053259097 -0.19133572
0000e0 47 76 8c be 3b df a4 be 1b 35 a3 bd 91 a8 d4 bd
       -0.27433988 -0.3220156 -0.079691134 -0.10383714
0000f0 22 57 5f 3e 84 c4 a1 bd cf 0c 09 3e 32 8f 9e bd
       0.21810582 -0.078988105 0.13383792 -0.07742156
000100 b1 30 9c 3e 1e 41 af be f4 6c c6 3d 72 54 34 bd
       0.305059 -0.34229368 0.0968875 -0.044025846
000110 ca 2a 02 3f 05 d1 c9 3d e1 61 29 be 48 4a af be
       0.5084654 0.098543204 -0.16541244 -0.3423636
000120 38 32 60 3d 99 40 51 be 7e 05 13 be 76 3a 0f 3e
       0.054735392 -0.20434798 -0.14357564 0.13987145
000130 6f e0 de 3e f7 b3 82 be 99 ca b8 be 00 5f 02 3e
       0.43530604 -0.25527927 -0.3609207 0.12731552
000140 8f 90 38 be 61 13 8a be e7 d1 75 3e 6c 44 3d 3e
       -0.18023895 -0.2696791 0.24005853 0.18483132
000150 66 19 a4 be 95 6f e2 be 85 d0 4a 3e 84 89 6d be
       -0.32050627 -0.44225755 0.19806106 -0.2319699
000160 db a5 43 3e fe 22 36 be ee bd 14 bd 4f ed 94 3e
       0.19106238 -0.17786786 -0.036313944 0.29087302
000170 ae 75 03 3f b4 8f b7 bd b5 88 30 be 02 25 1d be
       0.5135144 -0.08962956 -0.1723965 -0.15346149
000180 a9 59 12 3e 64 7d 34 be 47 df 6a 3e 51 8d 2d be
       0.14292015 -0.17625958 0.22936736 -0.16948439
000190 46 ee 6b 3e bc 58 01 be 48 da f0 be a4 d3 f7 3c
       0.23040113 -0.12631506 -0.47041535 0.030252285
0001a0 fb 42 6d 3e 11 e5 b4 3e 1e 11 3f be 7a ee ff bd
       0.23170082 0.35331014 -0.18658873 -0.12496658
0001b0 ed 4d 71 3e 21 34 8a be c1 f7 89 be 17 c5 75 be
       0.23564883 -0.26992896 -0.26946834 -0.24000965
0001c0 ce e9 0d 3e dd 5f a0 3d 9b 14 14 3e b8 86 03 3e
       0.1385872 0.078307845 0.14460985 0.1284436
0001d0 18 f1 31 3e b6 1e 7e 3e fa 3b 24 3e 0a 6b 2c be
       0.17377126 0.24816403 0.16038504 -0.16837707
0001e0 40 04 7c bd 03 fd eb be a3 83 8f bd 81 69 4f 3d
       -0.06152749 -0.4609147 -0.070075296 0.050637726
0001f0 1e ca cc 3c e0 6e 87 be 9e 51 5a be f0 e8 6d be
       0.02499872 -0.26451778 -0.21320197 -0.2323339
000200 cf c3 33 3e 00 33 dc 3c fc 19 83 3e 2a 44 71 bd
       0.17555164 0.026879787 0.25605762 -0.058902897
000210 04 86 33 3d 71 a4 9d 3d 48 ce a0 be cd be f2 bd
       0.04382898 0.0769738 -0.3140738 -0.118527986
000220 22 e9 3a 3e 79 b2 5a 3d 66 f8 30 be 29 23 e4 bd
       0.18252996 0.05339286 -0.17282256 -0.11139519
000230 5c 1b 81 3e 2e fc 0e be f4 d3 07 bf a3 80 21 3e
       0.25216186 -0.13963386 -0.5305779 0.15771727
000240 57 e7 4e be a6 20 b7 3d af 41 c5 3e 5f 2f 1f be
       -0.20205437 0.08941774 0.38526675 -0.15545414
000250 3f 4f 9f 3c 0d 53 5d 3e cb 63 30 bd 81 e5 03 3e
       0.019446967 0.21613713 -0.04306392 0.12880518
000260 b5 67 55 bc 5b f9 80 be 4b 48 0c be a7 27 bb bd
       -0.013025214 -0.25190243 -0.13699453 -0.091384225
000270 2e 8a 7c 3e 61 8c 6b be cb 60 c6 3c b0 00 38 be
       0.24662086 -0.23002769 0.024216076 -0.17969012
000280 7e f4 99 3e 13 cd 9a 3c d5 60 2b be 11 00 a4 be
       0.30069345 0.018896615 -0.16736157 -0.320313
000290 ac 70 9a bc c1 4e d7 bd a4 6f 9d be 78 d3 79 3c
       -0.018852554 -0.10513068 -0.30749238 0.015248172
0002a0 7d 2f 67 bc cf 49 5c 3d 80 9d 08 be e2 a4 37 be
       -0.014110443 0.053781327 -0.13341331 -0.17933992
0002b0 ee 32 1a be f7 91 8c bd 0c 8d 4d 3d e5 7f f5 3d
       -0.1505849 -0.06863778 0.05018334 0.119872846
0002c0 d5 8c 95 be 65 17 0d 3d 12 43 2d 3f f1 a8 44 3e
       -0.2920901 0.03444614 0.67680466 0.19205071
0002d0 c3 e2 78 3e 49 5a b6 3e b1 a4 7b be a0 26 07 be
       0.24305253 0.35615757 -0.24574544 -0.13198328
0002e0 9f 30 28 3e 41 e4 4c be ba 19 61 3e 24 41 69 bd
       0.16424797 -0.20008947 0.2198247 -0.05694689
0002f0 ed 7f cc 3d 2d 47 59 be 3c 7d bc bd 10 36 b5 bd
       0.099853374 -0.21218558 -0.09203574 -0.08848202
000300 57 63 e9 3e 72 4f 99 bd 1e ec 72 3e 55 1f 2e bb
       0.45583603 -0.07485856 0.23722884 -0.0026568968
000310 a5 18 c0 3d 46 39 6c 3e ca 51 c6 bd 6a 74 88 3d
       0.093797006 0.23068723 -0.09683569 0.06662829
000320 35 d7 5b 3e 4b a1 9d bd c7 d7 da 3d f5 e7 7d 3c
       0.21468814 -0.0769678 0.106856875 0.015497197
000330 f3 3e ae bc 21 9d 3a be d9 19 89 be f2 5c 04 3e
       -0.02127025 -0.18224002 -0.26777533 0.12926081
000340 9e 53 22 be 9e 74 7b 3d bd a5 8d 3e 69 fb 56 3c
       -0.1585221 0.06139051 0.2766551 0.013121464
000350 1e 1b 47 bd b7 43 a9 be 17 ce 37 3e 5b ee e1 bd
       -0.048609845 -0.33059475 0.17949711 -0.11031791
000360 1c eb a3 3d 8c 60 88 be ad 6a 57 be be 85 f2 3d
       0.08003828 -0.2663616 -0.21036787 0.118419155
000370 c4 6b b1 3e f0 51 56 be a2 7a 28 be ea 09 e9 bd
       0.3465253 -0.20929694 -0.1645303 -0.11378844
000380 00 b4 63 3e 46 ab b0 bd 18 fc 6c 3e fe d8 4c be
       0.22236633 -0.08626418 0.23143041 -0.20004651
000390 6e f9 42 3d bc da 82 be 5d 56 e1 be c2 3a 42 3e
       0.047601156 -0.25557506 -0.44011202 0.18967727
0003a0 cc fc a1 3d 61 9f 1a 3e a2 d4 ae be cf 12 11 be
       0.07909545 0.1509986 -0.341466 -0.14167331
0003b0 03 06 14 bd a5 e8 d9 3d 8d 34 48 be c3 51 12 3f
       -0.036138546 0.106400765 -0.19551297 0.5715601
0003c0 6f 71 a3 be 4f 5b 77 3e 6a 66 d7 3e 9f 1b e3 bd
       -0.3192248 0.24155925 0.42070323 -0.11089253
0003d0 c9 c5 a4 3e 22 eb f1 bd 37 ee aa 3c bc 81 14 3e
       0.32182148 -0.11812426 0.020865543 0.14502615
0003e0 34 df 5b bb 72 94 f9 be 41 c8 63 be 17 49 81 be
       -0.0033549787 -0.48746067 -0.2224436 -0.25251076
0003f0 2d 6c ae 3e a4 d8 c9 be 10 66 1b 3d dd 1e 78 bd
       0.34066907 -0.39423096 0.03793913 -0.06057631

lstm.bias_ih_l0 f4 [128]
000000 71 58 b5 be 4a bb b6 be bb 0d dc bd 91 6e dd be
       -0.35419038 -0.35689765 -0.107448064 -0.43248418
000010 f0 2e 94 be f6 94 8e 3d 26 68 40 be 4d fd 20 bc
       -0.2894206 0.06962006 -0.1878973 -0.009826017
000020 15 64 4b be f8 ae df bd 98 37 87 bd fb fb 01 bc
       -0.19862397 -0.109220445 -0.066024005 -0.007933612
000030 d6 e3 b3 bd 60 32 96 be 7a e6 30 be b5 16 9f be
       -0.08783691 -0.29335308 -0.1727542 -0.31072012
000040 90 21 99 be 8b 92 22 3c d7 bb be bd b2 ae 30 be
       -0.2990842 0.009922634 -0.09313171 -0.17254141
000050 e9 91 e0 3d c6 f6 04 bd 8b aa df be 56 8a 5f bd
       0.1096533 -0.032461904 -0.436848 -0.054575287
000060 c8 4f 8b 3d 7a 37 16 3e ff e9 00 bf 34 fc 0e be
       0.068023264 0.146696 -0.5035705 -0.13963395
000070 01 3c dd bc b8 01 59 bd 76 cf 6b be e8 2b 04 3d
       -0.027006151 -0.052980155 -0.23028359 0.032268435
000080 b7 59 02 bf 6d 26 01 3d 3a d5 26 3d 2e 7c 40 be
       -0.50918144 0.031530786 0.040730692 -0.18797371
000090 e0 a0 c6 bd 9c cc 2d bd 91 83 93 3d e1 94 b5 3c
       -0.09698653 -0.04243146 0.07202829 0.022165718
0000a0 fc 6c 8e 3e b8 f6 d1 be b0 7e 86 be 13 b6 b6 3e
       0.27817523 -0.41008544 -0.2626853 0.35685787
0000b0 ae 83 99 3d cb 26 04 be 5e af e0 bd 0d c1 b7 bc
       0.07495819 -0.12905423 -0.10970949 -0.022430921
0000c0 84 eb 00 bf e0 ec 32 3a 06 56 b4 be 03 8f c7 3d
       -0.5035937 0.0006825458 -0.3522188 0.09744074
0000d0 00 dc 8c be ad 04 06 bf 5b 00 1b be 1a 76 86 be
       -0.27511597 -0.52350885 -0.15136854 -0.2626198
0000e0 18 be b3 3e 4f f7 d8 3e bd 58 4a 3e 98 bc 48 be
       0.35105968 0.4237618 0.19760413 -0.19603193
0000f0 07 c0 62 3e f7 18 8e 3d bb 66 a8 3c a1 45 04 3f
       0.22143565 0.069383554 0.020556798 0.51668745
000100 e8 b1 6e 3d b0 7d 85 3d 16 6f 26 be 7b b2 42 be
       0.058275133 0.065181136 -0.16253313 -0.19013397
000110 41 1b db 3d a7 6f 5d 3e 11 b0 a9 bc 8e e7 8a bd
       0.10698558 0.21624623 -0.020713838 -0.06782447
000120 55 1d 3e be 3f 38 9c bd 41 9d 85 3c 38 e5 a3 3d
       -0.18565877 -0.076279156 0.016310336 0.080027044
000130 fa 2c 05 3e ae 41 1f 3e e7 98 2f bd 18 24 dc 3b
       0.13005438 0.15552399 -0.04287043 0.00671817
000140 bb a3 98 bd 42 e0 da bd 01 58 99 3d 89 8d 4c 3e
       -0.07453104 -0.10687305 0.074874885 0.19975866
000150 61 01 37 be 7e bc ca bd 77 e0 86 3c 64 eb bf bd
       -0.1787162 -0.09899233 0.016464455 -0.09371069
000160 f6 75 93 bc 03 5f 50 3e 2a b9 02 be 5a 43 98 3c
       -0.018000584 0.20348744 -0.12765947 0.018586803
000170 fa 26 39 be 1c aa 21 3c f2 a8 6a bc d0 4e 3b 3e
       -0.18081275 0.009867217 -0.014322506 0.18291783
000180 16 3f be be 28 44 a5 be 65 fb 82 3d 2e 77 88 bd
       -0.37157506 -0.32278562 0.06395606 -0.06663357
000190 51 6a d1 bd c6 b6 3e 3e 69 cb 38 3b 4b b5 a1 3b
       -0.10225356 0.1862441 0.0028197414 0.004934942
0001a0 49 3e c8 3d 2b 65 d5 be 4a e0 2b be a4 de 22 3e
       0.09777505 -0.41678748 -0.16784778 0.15905243
0001b0 de 36 27 3d b7 87 67 be 8b ff 84 bd 76 4b e3 be
       0.04082381 -0.22610365 -0.064940535 -0.4439351
0001c0 0b 21 9f be e5 13 fa 3c 7b f3 02 be 24 42 a7 3d
       -0.31079897 0.030527065 -0.12788193 0.08166912
0001d0 48 74 4f 3e 27 41 74 3c 32 49 a5 be ad 06 5d be
       0.20259202 0.014908112 -0.32282406 -0.21584578
0001e0 c0 cb 5f bd 40 8c 99 3e 4b 30 f5 be 4d 11 ca be
       -0.05463767 0.29989815 -0.47888407 -0.39466324
0001f0 f9 65 bd 3d 8f b2 de bd 77 1c 4d be 1c f7 ce 3c
       0.09247965 -0.10873901 -0.2003039 0.025264315

lstm.bias_hh_l0 f4 [128]
000000 cc e0 1a be 9c 9e d4 be d2 97 85 be e9 8a 92 be
       -0.15124816 -0.4152726 -0.26092392 -0.28621605
000010 ab 13 5b be dc e0 1c 3e 08 3d 69 bd 61 43 8f be
       -0.21394221 0.15320152 -0.05694297 -0.27981094
000020 87 7e 30 be 47 64 59 be 35 11 02 3c ca 0b 2e 3e
       -0.17235766 -0.21229659 0.007938673 0.16996685
000030 3b 62 94 be bc 17 96 be 30 c1 5c be 59 8a 9b be
       -0.28981194 -0.29314983 -0.2155807 -0.30378988
000040 76 d0 7a be 81 6e 78 bd 56 bf a1 be 58 78 5e be
       -0.24493584 -0.06065226 -0.3159129 -0.21725595
000050 06 7b 24 3e 16 40 79 3d b9 9f f4 be d9 0a 39 be
       0.16062555 0.060852133 -0.4777811 -0.18070544
000060 bc 46 bd bd 55 3b 5e 3e 36 06 d5 be 79 5f cd be
       -0.09242007 0.21702321 -0.416063 -0.40111902
000070 d7 3b 41 3d c5 d4 1b be 61 61 d2 bd 54 b3 f4 bd
       0.04717621 -0.15217884 -0.1027248 -0.119482666
000080 8d b1 01 bf 20 a9 17 be 3e 6e a8 3e 46 28 cd bc
       -0.50661546 -0.1481061 0.32896608 -0.025043618
000090 7e 37 36 bd 13 c3 a3 bd db d4 14 3e 88 47 3e 3e
       -0.044486515 -0.07996192 0.14534323 0.18581975
0000a0 64 51 e8 3d 62 92 a2 be 0b 9a ab be 3b 1d e1 3e
       0.11343649 -0.31752306 -0.33515963 0.43967614
0000b0 50 c7 a9 3d 3b fe 06 be 9d 20 6e 3e f2 67 87 be
       0.08289969 -0.13182919 0.23254628 -0.2644649
0000c0 6f c0 92 be 2b bb 05 3e 5d 3e 03 bf e1 0d 0a 3e
       -0.2866244 0.1305968 -0.51267034 0.13481857
0000d0 44 ee b8 be 57 70 dd be 89 d7 d9 3d 73 08 b1 be
       -0.36119282 -0.4324977 0.10636813 -0.3457676
0000e0 26 7a b1 3e 73 0f de 3e 6b 89 07 3d 48 34 4c be
       0.34663504 0.43371162 0.033090036 -0.19941819
0000f0 35 4e c0 bc 4e 1f 4c 3e 92 b7 62 bd 8b e3 10 3f
       -0.023474792 0.19933817 -0.055350848 0.56597203
000100 18 8c 9b 3c 14 ee 17 3e 16 42 34 bd 6f 14 b3 3d
       0.0189877 0.14836913 -0.044008337 0.08744132
000110 d0 ea 6e 3d ad de ff bc 6c b0 f4 3b 7d c1 17 3d
       0.058329403 -0.03123411 0.00746732 0.03704976
000120 60 19 58 3d af 79 a3 bd 61 62 15 3e 4f 03 25 3d
       0.052758574 -0.07982194 0.1458831 0.04028636
000130 df 13 b1 3c 6e b0 87 3d d2 d2 04 be 69 52 59 3c
       0.02161592 0.06625448 -0.12971047 0.013264277
000140 c5 75 40 bc ba 89 fc bc e8 2e 09 be 2e 40 a8 bc
       -0.011746828 -0.030827392 -0.133968 -0.020538416
000150 64 7c 82 3c dc 19 87 bd b4 fe 99 bd 1e 66 5d 3c
       0.015928455 -0.06596729 -0.07519284 0.013513116
000160 01 0d 7c bc 66 60 2f bd e0 4a 02 3e 4d 5d c4 3d
       -0.01538396 -0.042816542 0.12723875 0.09588108
000170 2e 25 d8 bd 5a 41 c9 bc bd 26 b1 3c 5b 51 ca bd
       -0.105539665 -0.024567295 0.021624917 -0.098787986
000180 66 08 9f be da ad 4b be cc 52 e4 3d 1d a4 02 be
       -0.31061095 -0.19890538 0.11148605 -0.12757917
000190 e9 db 00 be 60 a1 18 3e d0 3a b9 bc 99 2a d7 bd
       -0.12583889 0.1490531 -0.022611052 -0.10506172
0001a0 7b d4 09 be 1f 2c c1 be ae 4b 2b be 78 6f 33 3e
       -0.13459961 -0.37728974 -0.16728088 0.1752299
0001b0 f2 b5 68 be d7 53 71 be 98 bc a0 ba 04 ca 8a be
       -0.22725657 -0.23567139 -0.0012263237 -0.2710725
0001c0 fb 5d c3 be b3 e7 1f be ec 86 8c be d6 66 9c bd
       -0.3815764 -0.1561573 -0.27446687 -0.07636802
0001d0 cc dc cf bd 7e f4 b0 bc 0e a8 a2 be bc ad c8 bd
       -0.101495355 -0.021600958 -0.3176884 -0.09798762
0001e0 fd d5 7b 3d 18 86 47 3e e0 ba fe be e1 df f9 be
       0.061483372 0.19484746 -0.4975195 -0.4880362
0001f0 11 17 1d 3d ff a0 48 3d 47 dc 07 be ea 70 7f 3e
       0.038352076 0.048981663 -0.13267623 0.24945417

fc.weight f4 [2, 32]
000000 ba e4 f2 3c f2 f8 50 be 2c 63 c5 be 29 73 73 be
       0.029650081 -0.20407465 -0.38552225 -0.23774399
000010 9d 69 9f 3e 72 7b b9 3e db 66 b6 bb 33 0f a9 be
       0.31135264 0.36226994 -0.0055664605 -0.3301941
000020 fa 81 c8 be e9 cf 20 3c 0f 1d de 3e a0 fa 6f 3e
       -0.39161664 0.009815195 0.43381545 0.2343545
000030 88 73 95 3e e2 61 db 3d 45 c9 07 be 24 8b 0b bd
       0.29189706 0.10712029 -0.13260372 -0.03406824
000040 f5 e0 24 be 34 f9 f1 bd 01 f5 28 3e 14 93 a7 3e
       -0.1610144 -0.1181511 0.16499712 0.327294
000050 9b 86 96 be 69 8d 02 be ef 52 8f be 0e cc 19 be
       -0.2939957 -0.12749256 -0.2799296 -0.15019247
000060 7f 1b e1 3e f9 fd fb bc fe f9 92 3e 73 80 53 3e
       0.4396629 -0.030760752 0.28706354 0.20654468
000070 f5 20 ef 3d 20 63 9d 3d 5b 87 a7 be 3f 1c c3 3e
       0.11676208 0.07684922 -0.32720456 0.38107488
000080 de ea c2 bd 0a 8a 06 3e e2 34 97 3e d3 5b 99 3e
       -0.095174536 0.13138595 0.29532534 0.2995287
000090 4a 9c 9a be f7 ac c1 be 3d dc d3 3d 5b 70 dd 3e
       -0.30197364 -0.37827274 0.103447415 0.43249783
0000a0 95 32 c2 3e 4b 5b 3e 3e bc 74 66 be 36 52 78 be
       0.37929216 0.18589513 -0.22505468 -0.24250111
0000b0 d6 72 0c 3d ef f8 d8 3d d1 5e 7a 3e b7 25 9e 3d
       0.034289204 0.10594355 0.24450232 0.07722037
0000c0 61 ed 2b bd 5f 1c 25 3e 1c 30 e5 3b 7b b1 d3 be
       -0.04197443 0.16124104 0.0069942605 -0.41346344
0000d0 8c c4 34 3e eb 47 bf 3d 11 73 89 bc 9d d6 f3 bd
       0.17653102 0.09339889 -0.0167785 -0.119061686
0000e0 67 c9 c4 be fa 98 0b 3e 26 b3 c4 3c 68 a8 93 bd
       -0.38434908 0.13632575 0.024011206 -0.07209855
0000f0 d7 39 ef 3c 21 24 ed bd 93 83 6c 3e cc 01 ac be
       0.029202385 -0.11579157 0.23097067 -0.3359512

fc.bias f4 [2]
000000 65 c9 14 3e fe f5 8e be
       0.14529951 -0.27922052
